parsers/Stanza/xcl_classicalarmenian_tokenizer.pt (torch_old, 628328 bytes, 23 tensors)

embeddings.weight f4 [76, 32]
00000000: 0000 0000 0000 0000 0000 0000 0000 0000
00000010: 0000 0000 0000 0000 0000 0000 0000 0000
00000020: 0000 0000 0000 0000 0000 0000 0000 0000
00000030: 0000 0000 0000 0000 0000 0000 0000 0000
00000040: 0000 0000 0000 0000 0000 0000 0000 0000
00000050: 0000 0000 0000 0000 0000 0000 0000 0000
00000060: 0000 0000 0000 0000 0000 0000 0000 0000
00000070: 0000 0000 0000 0000 0000 0000 0000 0000
00000080: 7eea 0cbc 1320 79bd 0690 d0bd 26ad 5fbd
00000090: 6f23 d33c 5bef a93a a72a b6be 9d1c 8f3d
000000a0: 4d1c 173e 6a5a 1d3c b57b d23b cc82 49bc
000000b0: 6090 793e fdaa f4bb 5589 f13d 1909 9a3c
000000c0: dda7 553e 52f9 043d 6277 45be 5a2b 7bbe
000000d0: 4af4 30be 773b b93d 199a 63bd 6fdf 1e3d
000000e0: d23d 073d 33f7 873e 3a81 e43d 8dc0 8dbb
000000f0: ae90 233d b1cf 73be bb17 8bbe 36a2 eb3d
00000100: 720e 8a3f b47d c93e df50 853f 1d3d d2be
00000110: 2c01 e33e 99d5 aebf 7f7b 0e3f 752c 623f
00000120: 8af8 083f 9965 153f 6908 f6bf 9c7c 453f
00000130: 023c 7a3f f02e b83e d4d8 52bf bb14 8e3f
00000140: d367 713e b37f c6be c8cd 8bbf b30b 90bf
00000150: 9f6c 363f de39 883f d25a 803e 7459 b93e
00000160: 076c 8a3f 6dca 9dbf fda5 ab3e 2c04 87bf
00000170: 78e7 433f 873a 0a40 c28b d7bf a4b4 953e
00000180: 5281 dc3e ffd6 313f 0a3b 33be 3574 4f3d
00000190: 0a00 6f3f e90b 9e3f 5aaa 34bf abbf 39bc
000001a0: 7776 97be 8428 cc3c 45bc f7be bd11 8e3f
000001b0: b72b 143f 47df e83c dd14 c7bd f51f 823d
000001c0: 7adc 723f 5ff7 3fbd 5bfa b33f ef86 c63f
000001d0: c98f acbe bda9 84be 8a2e b23e c9c8 243f
000001e0: e930 bc3e 3042 19be df42 83be 1b6e c13f
000001f0: 6227 1c3f 1776 95be 0baf 103f ddbb 253d
00000200: fc00 67be 126a c2be 47d5 84bf 6b3f 233f
00000210: 064a 083f 14ec 523c b758 a2be f897 96bf
00000220: ec1b a2bf 10d3 003f 8d8c 4abf e76b 4dbf
00000230: eb43 913d 355a 04bd 94c8 893f 7366 583f
00000240: 98a5 07bf cc91 b53d 2a06 d13e 6baa 46bf
00000250: b5c4 05bf e735 dcbe b227 543f aaf0 e7bd
00000260: bd2f 99bf ec56 acbb 7449 0b3f db7c abbf
00000270: 008f 25bf a80b 3ebe 6b4b 0dbe a793 f0bf
00000280: aeca 4f3f 46d2 c8bf c7f7 a9bf b76b f73e
00000290: fc31 853e 1659 013e e024 8bbe 8ca2 9c3f
000002a0: 276e d8bf 9591 9cbf 3bf9 233f fbea 433f
000002b0: b52b b7be e832 983c 59dc 45bf 5774 4ebe
000002c0: 6f50 f0bc f408 05bf 71b6 24be 64b2 c8be
000002d0: 4f36 f73e bfbe 9ebe 8f30 15bf f81f 433f
000002e0: 6cf6 b23f 4438 7d3e fee5 80be b43a 8a3f
000002f0: daa3 5cbe 4f2f e03f 2f89 73bf c581 ec3f
00000300: 60d6 87be 2949 c83e 7bab e6bc 35f8 c93f
00000310: 8aeb 803f 9212 013f 7191 b13c 08b0 debe
00000320: 560d 4c3f 7012 06bf 2a62 e23f 97df 7cbe
00000330: ea85 a5be 7272 60bf 7e42 92bf 61bd d8bf
00000340: 855f 2c3f 12c2 05bf 1f0a 2bbf 19b7 9ebe
00000350: c002 64bf fad8 1d3f 614e abbe e0f2 bb3e
00000360: a542 783e 72ba a0be 1724 053f df26 0a3e
00000370: b541 633f 7bb7 733f d9bf 363e ac2e 67be
00000380: e800 2c3f 54a2 a9be a637 6bbe c208 3140
00000390: 167d 423e 4cd2 303e 53a6 8b3f 79be 8d3e
000003a0: 61fc e33d 2c44 26c0 d4a0 94bd de74 d43e
000003b0: 1e71 91be 00cc aa3e d735 99bf 8cbb fbbe
000003c0: f721 e3be f9a0 313f 8397 3c3e e203 073f
000003d0: 7eed 943e 27f1 d23e e801 26bf 607b 31bf
000003e0: 3f0b acbc 708b 7c3d 01e3 3bbf 40a7 bdbc
000003f0: d949 00bf 323a 26bf 7f61 293f 0028 51be
0.0 0.0 0.0 0.0 0.0 0.0 0.0 0.0
0.0 0.0 0.0 0.0 0.0 0.0 0.0 0.0
0.0 0.0 0.0 0.0 0.0 0.0 0.0 0.0
0.0 0.0 0.0 0.0 0.0 0.0 0.0 0.0
-0.008600829 -0.060821604 -0.1018372 -0.054608487 0.025773732 0.001296501 -0.35579416 0.069878794
0.1475689 0.009604076 0.0064234384 -0.012299251 0.24371481 -0.0074666725 0.11793772 0.018803166
0.20864816 0.032464333 -0.19283822 -0.24528256 -0.17280689 0.09044545 -0.05556688 0.0387873
0.03301794 0.26555786 0.111574605 -0.0043259324 0.0399329 -0.23809697 -0.27166542 0.11505549
1.0785658 0.39353716 1.0415305 -0.4106225 0.44336832 -1.3658935 0.5565719 0.88349086
0.5350424 0.5835815 -1.9221317 0.77143264 0.97747815 0.3597331 -0.82362103 1.1100076
0.23574762 -0.38769302 -1.0922174 -1.125357 0.7125949 1.064266 0.2506929 0.3620106
1.0814217 -1.23274 0.33525077 -1.0548148 0.7652507 2.1598222 -1.6839526 0.2923938
0.43067414 0.69468683 -0.1750299 0.050647933 0.93359435 1.2347385 -0.70572436 -0.011337201
-0.2958257 0.024921663 -0.48385826 1.1099163 0.57879204 0.02842678 -0.09720776 0.063537516
0.9486767 -0.04686677 1.4060777 1.5509928 -0.3370345 -0.2591075 0.3480113 0.64368874
0.36756065 -0.14966655 -0.25636956 1.5111727 0.60997593 -0.29191658 0.56517094 0.040462364
-0.2255897 -0.3797155 -1.0377587 0.63768643 0.5323795 0.012873668 -0.3170831 -1.1765127
-1.2664771 0.50322056 -0.79120713 -0.8024277 0.070930324 -0.03231259 1.0764337 0.84531325
-0.5298705 0.08865699 0.40825015 -0.7760379 -0.52253276 -0.43009874 0.8287307 -0.113252
-1.1967694 -0.0052593853 0.54408956 -1.3397478 -0.64671326 -0.18559134 -0.13798301 -1.879506
0.8116864 -1.568917 -1.3278741 0.48324367 0.26014698 0.1263164 -0.2717657 1.2237105
-1.6908616 -1.2231928 0.6405217 0.76530427 -0.35775533 0.018578961 -0.7728935 -0.20161568
-0.029335229 -0.51966786 -0.16085221 -0.391986 0.48283622 -0.31004903 -0.5827722 0.76220655
1.3981452 0.24728495 -0.2517547 1.0799165 -0.2154688 1.7514437 -0.951312 1.8477103
-0.26530743 0.39118317 -0.02815794 1.5778872 1.0071881 0.5041896 0.021675797 -0.43493676
0.7970785 -0.52371883 1.7686207 -0.24694668 -0.3232873 -0.8767463 -1.1426542 -1.6932794
0.6733325 -0.5224925 -0.6681232 -0.30999067 -0.89066696 0.61659205 -0.33458236 0.36708736
0.24244173 -0.31392246 0.52008194 0.1349139 0.88772136 0.95201844 0.17846622 -0.22576398
0.6718888 -0.3313166 -0.22970447 2.7661595 0.18993029 0.17267722 1.0910133 0.27684382
0.11132122 -2.597911 -0.07257238 0.41495413 -0.28406614 0.33358765 -1.1969556 -0.49166524
-0.4436185 0.6938625 0.18417172 0.527403 0.29087442 0.4119961 -0.6484666 -0.6932888
-0.021001456 0.061656415 -0.73393255 -0.02315104 -0.5011268 -0.6493255 0.6616439 -0.20425415

rnn.weight_ih_l0 f4 [256, 37]
00000000: 7039 163f b145 a23f b216 143d 4d92 61be
00000010: abbb 6ebe 18f2 783e 0237 0f3e d6aa af3d
00000020: c1b9 98be 5bd4 dabe 8cb6 3e3d 8729 6b3e
00000030: c811 903e eaf9 2c3e aa36 dbbd e7ea 7dbe
00000040: 2dd7 343e 106d 10bd 4087 14bf bc3e 333e
00000050: f805 3a3e 23cf 0a3f b02e 00bf 8752 ba3e
00000060: 6782 3f3e 9a6f 90bc 09ef 21bf 13dd 423f
00000070: 514d ff3e edf9 f63e 28b6 93bd 1fdd 9c3e
00000080: 0cf0 643e 9af3 f0bd 703e 23bc 245a b83d
00000090: e91d aabd 9855 fd3d 436e 7d3e 2f4c afbe
000000a0: 9c03 04be fb12 b33d 21df e6bc c998 453d
000000b0: f821 58be abf8 ea3e e3f3 62be 91d0 61be
000000c0: c062 acbe 8479 423f 76df 91bc 1f32 d9be
000000d0: 76d8 ee3d 0d5a f83e 4c8d 5a3e f267 c5bc
000000e0: db4d fdbd d0ce 0b3e 7e88 023d 3348 14bf
000000f0: 0439 613e 01de 7c3e 498e 383a f251 4c3e
00000100: dc83 45be abf7 9dbe 672e bb3a 8f5a eebe
00000110: 1de7 6b3e bab7 163f 51c2 1f3f 305c ff3d
00000120: 235a 1ebe 1632 a23d 5b5d 733d 70fb 753d
00000130: d545 f33d 5605 f63c 020f c8bd 268a babc
00000140: 5fe2 0b3e a94b f5bd c93f 08be 0e13 2cbe
00000150: e6bc 1ebe 7b4a 34bd 3d47 01be 954e febc
00000160: 9d10 383e c344 57be fb13 8a3c 359f c7bc
00000170: f507 f9bc bffa 203e 74ed 10be 53d5 40be
00000180: 67f8 663d 7f72 8cbe 91d6 bbbc bcf6 28be
00000190: c59b b4bd d8c4 9cbd 0d4a 59be e5bb 6fbe
000001a0: ecd2 663e ff71 bbbb 1f4d 86bf 4a3c a8be
000001b0: f47e 24bd c65a f1bd 90dc 8b3f 40af 0fbd
000001c0: 047f 973e ff64 10bf 3c2f 1cbc 5973 603e
000001d0: 3fb1 0e3c f54d 5d3d 55bf b4bd 5d15 323e
000001e0: 536a bb3d 9822 cb3c f1b2 24be 0a05 12bd
000001f0: e394 9fbd d0ba 6f3e 0a0f 80bd 3adc a5bd
00000200: 7e9f 11be 223c 113c db06 333e 74dc 37be
00000210: b64f 02be 5c51 00be 712b 2abe 6524 94be
00000220: 9e3e 1b3c f2b0 443e b1de aebd a350 8d3e
00000230: d203 a8bd 730e 60be 8c07 b23d abb6 d8bf
00000240: ae87 033f 8cb1 bd3d b196 1b3e f16f 833e
00000250: 0c0d adbe 061d 51bd 4a6b 283d 7077 e8bc
00000260: ded2 203f 55f7 ef3e 93e6 b43d 44fc 0e3e
00000270: 5793 e0bd 8a63 d93e b7ce 3ebb 938d 7e3e
00000280: d93e 7fbc 0a8a 003e cace 083e 4d4c cdbd
00000290: 938e 7e3e 048a 9b3e 1d3f 96be 7118 b53c
000002a0: aedb 083e 6b5a be3e ec1a 03be 9c04 b3be
000002b0: fecd e63d 1ee2 0cbf 2f80 093e 0cb4 0fbe
000002c0: 2623 553e bdec 2cbd 63e6 b53d 7463 babd
000002d0: 91a3 1e40 5326 91bf 5e70 84bd d8d1 433d
000002e0: 04e7 093f 3f6c 623e 08a6 fcbe 258b af3c
000002f0: 20f0 5cbd 7dba a73d a086 173e 0c7f 94bd
00000300: 6e59 af3c 4e7c d0bd 29a3 18be 5100 6dbe
00000310: 2522 913e f283 273e 8927 efbd ea67 523e
00000320: ef9c a33e da0a 653e e71e a7bd 4332 cebd
00000330: 62a0 8dbe c832 443e daed dfbc d21a 7d3d
00000340: 69f0 ccbd 29f7 a63d 6acc 483e 46e3 e9be
00000350: 2d83 99bc 9e2c 8cbe 04d8 f8bb 5579 40bb
00000360: 1712 40be 6d02 c13f b9ab 8c3e a21b aabd
00000370: 8af5 353e 9331 b139 8719 213c ab83 18bd
00000380: ae50 75be 146c 5e3d 53fa 6fbe f732 29be
00000390: 98b8 f2bd 5f14 e53d 5e2c 34be afd2 a83e
000003a0: 1875 483c e87d c53d 07d6 213e a22c 37be
000003b0: 979b 4c3e 4bae 5c3e cd9c 5a3d 8153 ddbd
000003c0: ac14 a7bd f469 243d 7323 363e 8be6 4dbf
000003d0: d7e6 e03d 4b1c bf3e 3eb0 603d 61ca 213d
000003e0: a16e 183e abb0 98bd 0f4e ef3b 0bcc 383e
000003f0: 4117 f43b 29a0 96bd a233 1740 06d6 553f
0.5868139 1.2677518 0.036154456 -0.22028466 -0.23313777 0.24311101 0.13985828 0.08577506
-0.2982922 -0.4274014 0.04656081 0.2296506 0.28138566 0.1689221 -0.10703786 -0.2479664
0.17660208 -0.03526026 -0.58018875 0.175044 0.1816634 0.54222316 -0.5007124 0.36391088
0.18702088 -0.01763134 -0.63255364 0.7611858 0.49863675 0.48237553 -0.07212478 0.30637452
0.22357196 -0.11765213 -0.009963617 0.09001568 -0.08306486 0.12369841 0.24749093 -0.3423781
-0.12892002 0.087438546 -0.028182568 0.04824141 -0.21106708 0.45892844 -0.22163348 -0.22052218
-0.3366909 0.7596667 -0.01780675 -0.42421052 0.116623804 0.48506203 0.21342963 -0.024097417
-0.123683654 0.13653111 0.03186845 -0.5792267 0.21994406 0.24694063 0.0007040245 0.19953135
-0.19288582 -0.30853018 0.0014280797 -0.46553466 0.23037381 0.58874094 0.6240588 0.12468755
-0.15464072 0.079197094 0.059415203 0.060054243 0.11878554 0.030031841 -0.097684875 -0.022770952
0.13660572 -0.11977322 -0.13305582 -0.16804144 -0.15501747 -0.044016343 -0.12624831 -0.03104333
0.17975087 -0.21022324 0.01685523 -0.024367908 -0.030399302 0.15720652 -0.14153081 -0.18831377
0.05638924 -0.27431104 -0.022929462 -0.16500372 -0.08818773 -0.076547325 -0.21219654 -0.2341152
0.22541398 -0.0057203765 -1.0492285 -0.32858497 -0.040160134 -0.11784892 1.0926685 -0.03507924
0.29589093 -0.5640411 -0.009532746 0.21919002 0.008709251 0.054029424 -0.08825556 0.17390962
0.09151139 0.024796769 -0.16083886 -0.035649337 -0.0779207 0.23411107 -0.062528685 -0.080986455
-0.14220998 0.008864434 0.17483084 -0.1795519 -0.1272572 -0.12531036 -0.16618134 -0.28934017
0.009475378 0.19208124 -0.08538569 0.27600583 -0.08203854 -0.21880512 0.08692846 -1.6930746
0.51378906 0.0926238 0.15194203 0.25671342 -0.33799016 -0.05105307 0.041117944 -0.028377265
0.6282176 0.46868387 0.08833041 0.13963419 -0.10965603 0.42458755 -0.002911491 0.24858694
-0.015578949 0.12552658 0.13360134 -0.10024319 0.24859075 0.30378735 -0.29345027 0.022106381
0.13365051 0.37178358 -0.12803239 -0.34964454 0.11269759 -0.5503253 0.13427804 -0.14033526
0.2081419 -0.04221796 0.088818334 -0.091010004 2.4787333 -1.1339821 -0.06466745 0.047807544
0.53868127 0.22111605 -0.49345422 0.021428654 -0.05393994 0.08189867 0.14797449 -0.07250795
0.021404948 -0.10179959 -0.1490599 -0.23144652 0.28346363 0.16358927 -0.116774626 0.20547453
0.31955668 0.22367421 -0.08160191 -0.100681804 -0.27661425 0.19159997 -0.027335096 0.061793156
-0.10006792 0.08152611 0.19609228 -0.45681208 -0.018739307 -0.2737779 -0.0075941104 -0.0029369195
-0.187569 1.5078865 0.27474764 -0.08306052 0.17769447 0.00033797006 0.009832746 -0.037234943
-0.23956558 0.05430229 -0.23435335 -0.16523348 -0.11851615 0.11185526 -0.1759505 0.3297324
0.012234949 0.09643155 0.15804301 -0.1788812 0.19981228 0.21550862 0.053372193 -0.10806943
-0.0815824 0.040140107 0.1778696 -0.80429906 0.10981529 0.37326273 0.054855578 0.039499644
0.14885952 -0.07455572 0.0073030065 0.18046586 0.007449061 -0.07354767 2.3625264 0.835297

rnn.weight_hh_l0 f4 [256, 64]
00000000: 9c88 323e 8446 b43e 0593 9cbd c139 9b3e
00000010: 4aeb 4a3e cb60 d13d 8019 fabd 7495 b8be
00000020: 837a 4ebf 3772 e0be 8b24 17be 0374 aabe
00000030: 5046 593d 8643 7d3c 0fa2 37be 089d 18be
00000040: 2b9d 463e d427 b13e 6a0b f2bd 7be2 c73e
00000050: 5763 493e cf57 9c3d 434a 413e 99ee e1be
00000060: 9fa0 1f3f d864 bd3e fab1 883e fbc6 c83e
00000070: 53ef 303e 1a3f 82be 38e9 ad3d 78a1 72be
00000080: fa4f 8a3d 0155 c3be f315 02be 2f67 17be
00000090: a6c7 423e 5979 9b3e ad7f 423e 51d4 efbd
000000a0: a92f 6a3e 339c be3e 505f 1e3c 624a 3e3e
000000b0: 7cd9 be3c d6dc afbe 2073 c0bd 585b 963e
000000c0: 0907 36be e815 4f3e 1a37 953e bfd6 aa3c
000000d0: 4e1f 9b3d c049 1cbd 6449 a83d 8aa2 c73e
000000e0: e436 6dbe 3f58 a1bd 7834 f43e a8f8 3c3e
000000f0: 3378 24be 2dab 46be 7cf0 8f3e 22f5 c63d
00000100: fe1b 2abd 2e05 a4be 518b 613c d03d f53d
00000110: c976 f83c b794 5d3e 419c 053d 0104 e03e
00000120: 9ccf 113e f288 f33c a813 96bd 8a54 fbbd
00000130: 18fd adbd 1694 a8bd d41d b73e a872 9abe
00000140: 093e e6bc 25a2 433f d4be a93e 97ea 1cbe
00000150: c6c3 643e fe14 f5be 60f3 173e 69ef d0be
00000160: b417 813e 3552 1a3e 3938 be3d e342 6cbe
00000170: aff0 fdbe 54df 5f3e 58a3 873e 17c5 22be
00000180: cacb cebd 08cb 1f3f c3d0 3abc 9df6 e93d
00000190: 8e3c 633e 378f 83be 7161 f63d c697 5abe
000001a0: 5e43 37be d025 2b3b 2114 f3be a9eb 59be
000001b0: 143c f1bd f512 b63e 2d48 823e bf12 aa3d
000001c0: 2b1f 06bf 0a9b cebe 68a7 333d 5fb1 a93d
000001d0: 9feb 653d 38cb 43be f5a9 cbbc 45ca 7e3d
000001e0: 3e0c dfbe dd6b 08be 6ec5 ee3e d9bc b9bd
000001f0: aa33 833e 8497 a03e 59c3 d6be 3cdf fabc
00000200: 25de 033f ff6a d7be f329 b7be 8aab 3b3e
00000210: 6587 35be 0b07 1bbe f108 603e 545e db3d
00000220: 1f2a 9a3c 82c4 f83e 42fe 003f da98 9abe
00000230: 817a f8bd 40af 09bd c10f 683e 5bb8 683f
00000240: e989 2abe bead d6be 1e80 84be 1e20 b33e
00000250: 1788 0d3e d6c3 8cbe 8535 73bd 8a9b a8bc
00000260: ffc2 363d 4734 f43c 900e ac3e dcb5 0d3f
00000270: 2f91 fb3e 0cdf 7fbd 0aba c63c e1a7 5f3e
00000280: 30a5 e4bd b265 073e 8933 c5bd 162c 1b3e
00000290: 27cf 38bf 45b1 f0bb a55b c9be d317 8ebc
000002a0: d5d7 c33e cccf 013d a46e 6cbe 3085 a5bd
000002b0: dafd af3e 3496 d03e 8f66 3cbd 5fe6 3b3e
000002c0: fecb d23e 5a96 043e d078 853e c0ea 31be
000002d0: 7fa6 b53e 8d2a 8bbd 6c62 47bd bba9 113f
000002e0: d0c8 92be 3a1e 99be 8fd4 5c3e ae5a 4cbe
000002f0: 32d2 693e 1bcf ccbd 7d37 893c 9b29 5dbe
00000300: 2947 a23e 1335 8abd 2cc3 0ebf dcde e93d
00000310: cea3 9f3e 62ee 96be 07e0 933d 9b25 f73e
00000320: 1aae 4abe b851 9d3e 945d 8d3c 8333 aabf
00000330: 893c 1abf 8d31 ca3d 0a41 1d3f 17ac fb3c
00000340: ae61 09be b99a 7b3c 77d7 cf3d eca3 29bf
00000350: e43c 363c c3b1 8ebe f0ba 883e 9335 c03d
00000360: 998f 333d 4799 153e 9a60 edbe 53d5 d73e
00000370: 1308 e6be 162f d83e 4410 8ebc 45dd 5b3d
00000380: ecf4 b7bc 29bf a33e 417b c6be 67be 243e
00000390: 75cf f93e 5a55 28be 6aad 8fbe c0ab 4cbe
000003a0: 505e 183e 5313 e5bd 1c45 463e 0134 813e
000003b0: 72ea 3abf cc30 40bd 07b7 2b3e 9707 40be
000003c0: 5fbb 46be e90e 05bd 7537 e0bc 9c4d 9d3e
000003d0: 6ff8 4cbe eb21 883e ed89 133e e8f3 bc3e
000003e0: 97be a63e d23d 8ebe 2a6a b23e 1254 5ebe
000003f0: 12cb 3b3e 6329 3bbe ab81 423e 4e16 923e
0.17434925 0.3521005 -0.07645229 0.303175 0.19816318 0.1022354 -0.12211895 -0.36051524
-0.8065569 -0.4383714 -0.14760034 -0.33291635 0.05304557 0.015457993 -0.17932914 -0.14903653
0.19395892 0.346007 -0.11818583 0.39039978 0.19666801 0.07633936 0.18875985 -0.44127348
0.62354463 0.36991 0.26698285 0.3921431 0.17278795 -0.25438768 0.084917486 -0.23694408
0.067535356 -0.3815079 -0.12703685 -0.14785455 0.19021472 0.30366018 0.18994017 -0.11710418
0.22869743 0.37228546 0.009666279 0.18583062 0.023297064 -0.34348172 -0.09396958 0.29366565
-0.17776121 0.202232 0.29143602 0.020854352 0.0757433 -0.03815627 0.08217123 0.38991195
-0.2316547 -0.0787816 0.4769628 0.1845423 -0.16061477 -0.19401236 0.28113163 0.09714724
-0.0415306 -0.32035202 0.013766126 0.119746804 0.030330079 0.21638761 0.03261972 0.43753055
0.14239353 0.029728387 -0.07327968 -0.12271984 -0.084955394 -0.0823137 0.35764945 -0.301656
-0.028105753 0.7641929 0.33153403 -0.15323864 0.22340307 -0.47867578 0.14838934 -0.40807655
0.25213397 0.15070422 0.09288067 -0.2307239 -0.4959769 0.21862537 0.2649181 -0.15895496
-0.100974634 0.62419176 -0.011402312 0.11423991 0.22191069 -0.25695202 0.12030304 -0.2134696
-0.17896792 0.0026115067 -0.47476295 -0.21281303 -0.11779037 0.35561338 0.2544569 0.08304357
-0.5239131 -0.4035266 0.043860823 0.08285784 0.05613291 -0.1912049 -0.024861315 0.062204618
-0.43564028 -0.13322397 0.46635002 -0.09069223 0.25625354 0.31365597 -0.41945913 -0.030624025
0.5151084 -0.4207382 -0.35774192 0.18327156 -0.1772743 -0.15139405 0.21878411 0.10711351
0.018818913 0.48587424 0.50387967 -0.3019474 -0.12132741 -0.033614397 0.2266226 0.90906304
-0.16654171 -0.4192943 -0.25878996 0.3498544 0.13821445 -0.2749316 -0.059377212 -0.02058198
0.044619557 0.029810084 0.3360486 0.5535562 0.49134204 -0.062468573 0.024258632 0.21841384
-0.111643195 0.13222387 -0.0962897 0.15153536 -0.7219109 -0.007345351 -0.39327732 -0.017345345
0.38250604 0.03169231 -0.23089081 -0.08082044 0.3437336 0.40739596 -0.045996245 0.18349598
0.4117126 0.1294798 0.26068735 -0.17374706 0.3547859 -0.06795225 -0.048677847 0.56899613
-0.28668833 -0.29905874 0.2156546 -0.19956467 0.2283409 -0.1000044 0.016750092 -0.21597902
0.31694916 -0.06748404 -0.5576656 0.1141946 0.3117966 -0.29478747 0.07220464 0.48270878
-0.19792977 0.3072641 0.017256536 -1.329697 -0.6024862 0.09872732 0.61427367 0.030721707
-0.13416168 0.015356713 0.101485185 -0.6626575 0.011122916 -0.27869996 0.26705122 0.093852185
0.043838117 0.14609252 -0.46362764 0.4215494 -0.44928035 0.42223424 -0.01734174 0.053677816
-0.022455655 0.3198178 -0.3876591 0.16088258 0.4879109 -0.16438809 -0.28061992 -0.19987392
0.14879727 -0.111853264 0.193623 0.25234988 -0.73013985 -0.046921536 0.16769038 -0.18752895
-0.19407414 -0.032484923 -0.027370194 0.30723274 -0.20016645 0.26588377 0.14408083 0.36904836
0.32567284 -0.2778154 0.34846622 -0.21711758 0.18339184 -0.18277507 0.18994777 0.28532642

rnn.bias_ih_l0 f4 [256]
00000000: f2df 113f 9e0a 993f 7816 0cbf b9d7 843d
00000010: 4b80 173e 4eae b33e d9c3 0d3f 5c3d 023e
00000020: 093e 6fbe a9d8 4e3e 7f4f 91bd e31c ba3d
00000030: 726f 5d3c b8d4 4abd 3068 28bc 2fc4 6abe
00000040: 779d 753e f1b5 9dbd 501e 0f3e 3b9e b2bc
00000050: 493c 893e 1915 e63d 2b57 323f 8eda 353e
00000060: 4f42 9d3e 69ca 5f3c 85c1 6dbe cede edbd
00000070: 826a a43e 74c0 9d3e 9037 e73d 469c ae3e
00000080: ffac 78bb 719a 9d3e b888 d23d e62a d33e
00000090: 327b 523e 1b84 233e 86ad 263f 28a9 193f
000000a0: d857 693e e20c ac3e 5197 cabd eb72 b53e
000000b0: c0f9 73bd 6ae6 a83c 5c38 a13e 7b47 f13d
000000c0: 3971 5a3e 7f89 c53d 6c9e a7bd bade 86bd
000000d0: f445 413c ae74 8e3e 5141 d13d e6d7 cc3e
000000e0: 925b 7c3e ce64 9cbd 3a2e 853d d4d1 693e
000000f0: 3a42 0e3f 9bf8 103e 3b12 973b e2d1 613e
00000100: e835 bfbe 9f4f 343f 30d3 b73d 5019 6ebd
00000110: 5993 08bf f7fb edbe 90f3 05bd 3f8c 84bd
00000120: 0016 38be 8e3c 513e cdb9 04be 84ab 433d
00000130: b21f 3ebe ba51 8cbe c975 57be 4c2a 113e
00000140: 59df 05be 887c 453d a0cd f0bd 9ff8 0c3d
00000150: f7cb 12be c202 cdbe 3806 b5be 94f2 c9be
00000160: f544 8f3d d296 9dbd 8542 993e 7bae 883e
00000170: b25e aabe 5f54 96be 4111 07bf 2f00 9fbe
00000180: 3ee9 3bbe 8722 8fbe b954 2cbe 62b8 1bbe
00000190: 5609 81be cc4e cebd c0ac 3abe 6c8f 82be
000001a0: 8ae7 77bc c57f f7bd a91f 90be b0a3 a2be
000001b0: 0187 c9bd 9035 ebbd 984d 99be 4f4a cdbe
000001c0: 502b b6be ceef 8cbe cc7c 0cbe 9f0f bfbe
000001d0: 9fa4 eabd a9c2 5ebe 8023 2a3e 647d 3dbd
000001e0: 176c 75be c585 e0bc c5a9 61be c2b4 b5be
000001f0: 7c21 47be 618c cbbe 5a2a 8cbe c5ef 0ebf
00000200: 60bf 3ebd 3e59 ef3e 4dcb 923c 6078 5fbd
00000210: 38b4 2a3d 06c0 203d b796 cfbb 9db8 433e
00000220: 2bce 16be 1828 41be bf93 543d 788d 313d
00000230: 382c 63bd 1f83 18be 59fc 41be b1d4 acbd
00000240: 2d37 5fbd 6cf0 623e 12ca c03d c27b 49be
00000250: 6cb8 5a3e e06a 2ebe 6b13 19be 9b34 423d
00000260: 2482 1a3e 0a9e b03d 4c11 af3e 692f 0bbd
00000270: 8295 c6bd 1305 393c 7e86 7b3d 2653 123d
00000280: 84e3 3dbd 9ef6 d83c a193 2f3d 2ff9 12be
00000290: d911 353e 2c3b b4bd d719 a2bd 5bfc 7bbd
000002a0: c94b 7dbc e858 c83d 420f dc3c 1cce 5b3c
000002b0: 704e 59bd 269b d2bd 01d9 983d bf37 a0bd
000002c0: 6dc4 ccbc 5cbe 443d cb33 90bc e702 e6bd
000002d0: 1594 213d ac6f 373d 4aec 3d3d d17c a1bd
000002e0: c47c a2be 3f60 67be 60f7 923d 416e 86bd
000002f0: 5c96 0a3e 1ef2 633a 9b2d cc3d 3a3a 073e
00000300: 4c76 c33e 5bfe 4abe 1a8c 40be 82b5 313e
00000310: 79b2 d53e cda5 083f 99bd d73e 6587 bb3d
00000320: a4e2 383d f84b 823d 6661 433e 1ea8 eb3d
00000330: 37df 92bd 7cf7 a5be a381 c9bc ab52 c83a
00000340: de8c adbc 0d37 21bd c805 443d 42f2 5abd
00000350: 20a6 383d 5131 9b3d 3447 723e a433 023c
00000360: cf34 7fbd 76e7 83bd f05e 48be c66e 9c3e
00000370: 75fe ba3e 88e4 223e 7db0 8f3e 6c57 ec3e
00000380: 6d50 e53c 510e d33e 4256 e2bd 25a0 bf3d
00000390: e139 7e3e 9f45 f63e 5eda 663e 4ae4 393f
000003a0: 052f 323e e22d e73e 1c65 133d bd95 f03d
000003b0: d69a 683e 0a8a 5abd 51f0 bc3e 7181 3abe
000003c0: 94ee 283e 2990 c23d 5f80 353e e939 5d3e
000003d0: e9f0 0c3e 8da7 b83d 7259 ca3e 768c 9f3e
000003e0: 622e 0bbe a8d7 46be 3e3e 913e ccd4 9f3e
000003f0: 288a 8d3e 55c7 a33e 93b5 7bbd afdd 3f3e
0.5698234 1.1956365 -0.54721785 0.06486458 0.14795034 0.3509392 0.55376965 0.12718719
-0.23363508 0.20199837 -0.07095241 0.09087541 0.01351534 -0.04951927 -0.0102787465 -0.229264
0.2398585 -0.07700718 0.13976407 -0.021803966 0.26803806 0.11234493 0.6966426 0.17759153
0.30714652 0.013659098 -0.23218353 -0.11614762 0.3211251 0.30810893 0.112898946 0.34103602
-0.003794491 0.30781892 0.10279983 0.41243666 0.20554808 0.15968363 0.65108526 0.60023737
0.22787416 0.3360358 -0.098921426 0.35439238 -0.059564352 0.020617682 0.3148831 0.11781212
0.21332254 0.09645366 -0.081845134 -0.065854505 0.011796463 0.27823395 0.10217536 0.40008467
0.24644306 -0.076364145 0.06502958 0.2283395 0.55569804 0.14157335 0.0046103275 0.2205272
-0.37345815 0.7043399 0.08975828 -0.05812961 -0.53349835 -0.46481296 -0.032702982 -0.06472062
-0.17977142 0.20433256 -0.12961502 0.047770992 -0.18566778 -0.27406102 -0.21041025 0.14176291
-0.13073482 0.048214465 -0.1175797 0.03441679 -0.14335619 -0.40041167 -0.35356307 -0.39442885
0.069955744 -0.07694782 0.29933563 0.26695618 -0.33275372 -0.29361245 -0.527607 -0.31054828
-0.18350694 -0.2795603 -0.16829194 -0.15207055 -0.25202435 -0.10073623 -0.18229961 -0.25500047
-0.015130887 -0.12084917 -0.28149155 -0.3176551 -0.09840203 -0.114848256 -0.29942012 -0.40095755
-0.3557992 -0.27526706 -0.13719481 -0.37316605 -0.1145718 -0.21753944 0.16615105 -0.04626216
-0.23967014 -0.027407536 -0.22037418 -0.3548947 -0.19446367 -0.39755538 -0.27376062 -0.5583461
-0.04656923 0.46747774 0.017919207 -0.054558158 0.041675776 0.039245628 -0.0063351053 0.19113393
-0.14727084 -0.18862951 0.051898714 0.043347806 -0.055462092 -0.14893769 -0.18943919 -0.08439005
-0.05449598 0.22162026 0.09413542 -0.19676116 0.21359414 -0.17032957 -0.14948814 0.04741345
0.15088707 0.086238936 0.34192884 -0.03398076 -0.09696485 0.011292714 0.06140756 0.035723828
-0.046359554 0.026484784 0.0428654 -0.14352868 0.1768259 -0.08800349 -0.07915085 -0.06151996
-0.015459963 0.097825825 0.026862744 0.0134158395 -0.05305332 -0.102834985 0.07463265 -0.07823133
-0.024996007 0.048033103 -0.017602822 -0.11231022 0.039447863 0.044784233 0.04636792 -0.07885135
-0.31735814 -0.22595309 0.07176089 -0.06563998 0.1353392 0.0008695441 0.09969636 0.13205805
0.3817619 -0.19823591 -0.18803445 0.17354396 0.41737726 0.5337799 0.4213684 0.09156684
0.045138016 0.06362146 0.19080123 0.11506675 -0.07171481 -0.32415378 -0.024597948 0.0015283426
-0.021185335 -0.03935914 0.047857076 -0.05345369 0.045080304 0.07577766 0.23659974 0.007946882
-0.06230622 -0.06440632 -0.19567466 0.30553263 0.3652226 0.1590749 0.28064337 0.46160448
0.027992452 0.4122186 -0.110516086 0.09356717 0.24826767 0.48099992 0.22544238 0.72613966
0.17400749 0.45152193 0.035985097 0.1174731 0.22715315 -0.0533543 0.36902097 -0.1821344
0.1649726 0.095001526 0.17724751 0.21604122 0.13763775 0.09016333 0.39521366 0.3116185
-0.13591912 -0.19418204 0.283678 0.3121704 0.27644467 0.31988016 -0.06145246 0.1873691

rnn.bias_hh_l0 f4 [256]
00000000: ed12 e03e 5a70 8c3f 3c7b 9ebe 0058 14be
00000010: d803 713e 385c e83e 9ca9 153f 5067 093e
00000020: 8830 c3be f5d5 4f3e 5772 18be 5d60 243e
00000030: 8528 85bd 64df ec3a 524d d3bd 6e2f 87be
00000040: d39c de3d 43ae 413d 97ae 02bd 8c67 40be
00000050: ab9d ae3e 9484 833d 6417 193f 634a fe3d
00000060: 3caa 233e c3ac 7a3d 5eaa c1be b654 153d
00000070: 41a8 a23e ffcb 8f3e 1b80 0d3e 9eca 283e
00000080: ce7f 5b3e bf36 953e 6988 50bd 6e44 df3e
00000090: 807a 613d 0793 2f3e a9b0 013f 1380 1a3f
000000a0: 7f89 2b3e 5618 ba3e 4f7c 98bd bc22 363e
000000b0: 3200 3d3d b7b6 d8bd 61d5 af3e b953 703c
000000c0: 3b2d b13e 8ea1 093c ac0c d4bd cfc5 98bd
000000d0: 8ab1 1f3b d0ec a83d e813 98bd 1cc3 403e
000000e0: 641b d43d aefb 183e f11a 1f3e 62de 983e
000000f0: f915 053f 39a9 223e 5cdd c23c a4a5 523e
00000100: d5fb dfbe 0509 253f fb44 eb3c d8da 4bbc
00000110: 44d5 1abf c1a0 04bf 3f2e 9cbd 2922 363d
00000120: aef8 93be e2ff c33e b3d3 433d 5a38 c63d
00000130: f370 1dbe 54f6 68be 4cd0 75be 6d2b 3e3e
00000140: e51c 3abe fb7d 7ebd a4ee b9bc bf9e 9cbb
00000150: 14a9 93be a439 c4be b916 b4be a2c3 81be
00000160: 7342 5c3b 104c 87be 7222 403e 16f5 8d3e
00000170: e947 04bf 46bc 9dbe b226 d5be 60d6 bcbe
00000180: b443 93bd 444a 77be ab18 55bd 2477 4abe
00000190: dfad 18be 01a8 e5bd 2568 a2bd 4f28 b9be
000001a0: 36ee bcbd 9f90 9e3d 224a a6be 482a a8be
000001b0: a3ac 0abe 5a60 ff3b 5a6b 76be 438d b7be
000001c0: 060b adbe ed0a 99be 71b7 d1bd cdd1 d9be
000001d0: fc01 0dbe cc18 67be 0b2a bbbb 84e9 20be
000001e0: 1d0d 7abe 7295 ed3c e6f2 a8bd abe7 d5be
000001f0: 359a 69be 4e9b bebe 25f1 a4be 2619 1cbf
00000200: d6f9 b7bc 2896 a83e 1e3f 063e 133b 833d
00000210: e527 003e 0dc6 0f3e d657 aebd cf6b 823d
00000220: a42c 843d a719 7abd 1a93 1bbd 38e6 3f3c
00000230: 103f bdbc 9eb3 43bd 3b1d 24bd ac98 0c3d
00000240: c6c7 2d3d 7f2b c33e 11c6 133e 408b 96bd
00000250: 1a4c 223e 438d dcbd b1d8 d5bc 2729 793e
00000260: 0236 f83d 81f5 ddbc 52dd 6e3e 6588 5fbd
00000270: 2fba febd 3f39 91bc c683 013e 2179 483e
00000280: fa91 103e 1e45 c2bc 737f f1ba faf3 50be
00000290: 3eb4 223d 2416 b1bd 4816 f83c 5079 0ebe
000002a0: 7177 13bd 1c35 c13d 307a bcbd cd9e ca38
000002b0: 4156 f739 1ed4 bbbd 4079 33bd e073 36bd
000002c0: bd37 613d 8541 36bb 2c88 193b d07d 8fbd
000002d0: 1a86 77bd 22e6 103e 6ae6 0ebd 9b4e eebd
000002e0: 59d1 2abe 2e9e 6abe 1f04 56bc ec01 ab3d
000002f0: 6a83 3fbd d101 e23d b8d8 c5bd 034a 423e
00000300: edb9 7e3e 66a0 8fbc 0115 f5bc 72d4 1c3e
00000310: 094d bd3e 4caf 203f ba32 ea3e ae78 af3d
00000320: fb3e 7dbd b0c2 9dbd cbad 3b3e 5498 333e
00000330: 05b2 d43d faf2 94be 86e1 a6bd 7e23 763c
00000340: ad1b 55be ca33 01be 0951 f73d 2ea0 5fbe
00000350: 9407 1dbe 3de2 0f3e 050f b23e 876c 043e
00000360: 787f b83d 7dc2 00be efea 1ebe 84c1 953e
00000370: 022f 9f3e 92ca aa3e c342 b93e 9a2d 873e
00000380: 87a3 72bd 9b87 693e 202d 13bd 86ba e3bd
00000390: 9257 a13d e07a fc3e 0def 643d 86a7 243f
000003a0: b53c 953e 0ad3 1b3f 0681 513e 221d 2f3e
000003b0: 7216 d83d 499e 63bd d85d b93e 52eb 33be
000003c0: f25e 113d 7938 203e 578b 253e 2146 313e
000003d0: c7a3 693e 628f 923e 4b2a cb3e f926 133e
000003e0: b9f3 94bd 0106 97be 97c3 d43e 83af e53e
000003f0: e302 ad3e fe14 843e 3d9c c4bd 99dc 953e
0.4376444 1.0971787 -0.30953395 -0.14486694 0.23536623 0.45382857 0.5846193 0.13418317
-0.38122964 0.20296462 -0.14887367 0.16052385 -0.06501869 0.0018071947 -0.10317482 -0.26403373
0.108697556 0.04728533 -0.031904783 -0.187895 0.34104666 0.06421772 0.59801316 0.12416532
0.15982908 0.061199915 -0.37825292 0.03645774 0.31768993 0.28085324 0.138184 0.16483542
0.21435472 0.2914333 -0.05091134 0.43606895 0.055048466 0.1714593 0.50660187 0.60351676
0.1675167 0.36346692 -0.07445585 0.17786688 0.046142764 -0.10581725 0.34342483 0.014668399
0.3460482 0.008400334 -0.103539795 -0.07459604 0.0024367296 0.082482934 -0.07425672 0.18824428
0.10356787 0.14939758 0.15537621 0.29857165 0.5198665 0.15884866 0.023787193 0.20571
-0.4374682 0.6446689 0.028719416 -0.012442313 -0.6048167 -0.5180779 -0.07626008 0.04446617
-0.28900665 0.3828116 0.047809314 0.09678717 -0.15375118 -0.22750217 -0.2400524 0.18571253
-0.18175085 -0.062131863 -0.0226968 -0.004779666 -0.28839934 -0.38325226 -0.35173586 -0.25344568
0.0033608943 -0.2642522 0.1876314 0.27726048 -0.51672226 -0.30807704 -0.41631085 -0.36882305
-0.07190648 -0.24149424 -0.05202548 -0.19772011 -0.14910077 -0.11213685 -0.0793002 -0.36163566
-0.09225123 0.07742428 -0.32478434 -0.32844758 -0.13542418 0.0077934684 -0.24064389 -0.35849962
-0.33797473 -0.29891148 -0.10240067 -0.42542878 -0.13770288 -0.22568053 -0.005711799 -0.15714079
-0.24419065 0.029001925 -0.08249454 -0.4177831 -0.22812732 -0.37227863 -0.3221523 -0.60975873
-0.022457998 0.3292706 0.13110015 0.06407752 0.12515219 0.14040394 -0.08512847 0.06368219
0.06453827 -0.06105962 -0.037982084 0.011712603 -0.02310136 -0.04777872 -0.04006694 0.034325287
0.042426847 0.38119122 0.14431025 -0.073507786 0.15849343 -0.10769131 -0.026104303 0.24332105
0.12119676 -0.027094604 0.23326614 -0.054573435 -0.124378555 -0.017727492 0.12647924 0.19577457
0.14118186 -0.023714598 -0.0018424824 -0.2040557 0.039722674 -0.08646801 0.030284062 -0.13913465
-0.03600258 0.09433958 -0.09202993 9.6616895e-05 0.00047175775 -0.091713175 -0.043816805 -0.0445441
0.054984797 -0.0027810049 0.0023427112 -0.07006419 -0.060430624 0.14150289 -0.03488771 -0.116360866
-0.16681422 -0.22911903 -0.013062506 0.08349976 -0.046756186 0.11035503 -0.096604764 0.18973546
0.24875613 -0.017532539 -0.029917242 0.15315416 0.36972836 0.6276748 0.45741826 0.0856794
-0.06182764 -0.07703149 0.18328016 0.17538577 0.10385517 -0.29091626 -0.08148484 0.01502311
-0.20811339 -0.12617412 0.12076003 -0.21838447 -0.15334922 0.14051147 0.34777084 0.12932025
0.09008688 -0.12574191 -0.15519308 0.29249203 0.31090552 0.33357674 0.36183748 0.2640198
-0.059237983 0.22805636 -0.035931706 -0.11119561 0.07878031 0.49312496 0.05589204 0.6431812
0.29147878 0.60868895 0.20459375 0.17100957 0.10551156 -0.055570874 0.3620441 -0.17570236
0.035490938 0.15646543 0.16166435 0.17311908 0.22816382 0.28625017 0.39680704 0.14370336
-0.07273049 -0.29496768 0.41555473 0.44860467 0.33791265 0.25797266 -0.096001126 0.29269865

rnn.weight_ih_l0_reverse f4 [256, 37]
00000000: fbd6 6d3e 6342 02bd 6faf adbd 50d1 203e
00000010: fb3d 943e daf6 13bd b775 3f3e 44d3 733d
00000020: e984 353e 5039 143e c148 9a3c 942d 03bf
00000030: f25d 59bd 6a64 69be 1eaf 973e 92ea 3bbe
00000040: 7498 ff3d 9f6f d33c 17b4 95be c920 c63d
00000050: f9e5 8fbd c9f6 d43e 7950 a0bd 31c9 dabd
00000060: 4370 c5be 7606 34be 33c5 333f 6ce2 7abe
00000070: a534 89be 81c7 18be c78f e7bd 07a4 47bd
00000080: 2b99 e73e 5542 393f f280 f03d 6657 e3bc
00000090: 0a04 6dbe 1d19 a3bd 71da e83c c0b5 efbd
000000a0: 4352 643d de77 993d 9fec eb3c ec8c e53d
000000b0: f689 9f3c b880 f5bd aca5 1dbd 920f 0a3d
000000c0: db34 8fbd 21bf eabd 442f 143e d7f6 fabd
000000d0: 9b6a 82bd c7fe cbbd 748c e9bb cb16 3c3e
000000e0: 088b 063e 87c6 433d 1a4e d3bd 8d59 b6bd
000000f0: 9b7b 40bd e892 c9bd fd08 9cb9 70e4 98b9
00000100: ebd3 e33d 0279 1ebe e70e 53bd 72c6 ca3d
00000110: a591 dabd 0ad5 063f cd01 b83f fec1 e13d
00000120: 2b4e e5be 3bb1 f03e 5874 ff3d 7613 273f
00000130: d28c a13d 819e c2be b42b 1ebe 0ae4 01be
00000140: 4f9d f4bd fd48 8e3e 05fc 0b3e 7600 3cbf
00000150: a8f0 8f3e a52e 80bd f521 6e3d 88d9 973c
00000160: 0c73 90be 7bfc a8be 5814 1e3c 2c7e f0be
00000170: a250 b7be 8bee a63e d9f8 6b3e 80b3 08be
00000180: 0d38 8bbe e14f 673c 5725 053e ecbb d9bd
00000190: 26d9 03be b77a b33e 3055 f03d 3cf2 f53d
000001a0: 8a50 34be fbd8 a43e 196a c73f e9b1 893f
000001b0: 10f4 8c3d 6ce2 a7be 54a2 843e 8e6c 0abe
000001c0: c16e c63e c409 73be 3528 cebc 91b1 173e
000001d0: 36a6 abbe efeb a1be 3589 0fbe 8160 7a3e
000001e0: 7734 e8be 557c 953e 6fc7 1bbf 8f48 a13e
000001f0: 7237 63be 8dc0 00be b0c1 fd3b 18c9 783e
00000200: cf50 14be 5f38 ac3e 0aa4 3e3f 2b9a 423e
00000210: b2ee 05bf 4ac3 26be ebca be3d f601 cbbe
00000220: f37e 3abe 8e6a 5b3e a11c 403d 4cb2 2abe
00000230: 0992 453d 1e33 63bd 8312 4b3e 8694 a4bd
00000240: ef89 123e 307b c23c 30be d5bd df15 bc3d
00000250: ef59 503e 3243 91bd 08d8 2abe aeda 933e
00000260: 99a1 fc3e 61fe a53d 5f0f 86be 3a97 a8bd
00000270: 893a adbd 2c76 a43e 81d9 02bd 4b8a 993d
00000280: dd5d 933d 64c4 cdbe 54f4 48be 03d1 52be
00000290: 7828 b5bc 9287 533e 2433 90bd 33f7 f93d
000002a0: 75a3 0abe d9c9 a23e df16 9cbe 5176 c83d
000002b0: 8e2a eb3d 2b41 1abd b8e5 8d3e 004f 04be
000002c0: d98c 033d c1d8 a2bd 572b d1bb 73a7 47be
000002d0: b1af 963e 30f3 5d3e 442f 803d f5f0 0abe
000002e0: 9053 af3e efe6 b0be 2bce 5b3e 6b9b 51be
000002f0: c8ee abbe a08c d1be 2f09 6cbe a0ec 66bc
00000300: 60eb 6e3e 0e92 733d e788 d8bd 676a 013f
00000310: aaf5 04be ed85 1a3e f2f6 b6be cf25 85be
00000320: aba4 abbe 749c d63d eed9 533d 0e77 ecbe
00000330: bd8c 46be 3a25 113f baee 873d a6f6 2cbf
00000340: e5d2 993e 41f6 3b3e 7c04 943e b7d3 1e3e
00000350: e4c0 2dbd 351b ff3e 2ba2 9b3e 2814 0fbf
00000360: def1 c23d 65a9 89be 0d28 a83f 0050 33bc
00000370: c4ba 273e 312d 48be f170 103c 4dd5 e2bd
00000380: 9502 52be c3e1 1e3e dba0 a83e 17c7 08bd
00000390: 8b4a 53bd 65e0 063d 0b3b 5abe 5fd4 81be
000003a0: d79c 07be ac9d 4dbe adbf 98bd b6eb e93b
000003b0: 6609 86bd 4ad8 7d3e 11d4 4e3e 5c45 ca3d
000003c0: 6ebd e53d 6cbe 2bbf 5cdf 9abe 61bb ef3d
000003d0: c27b 553e 7c22 40be b0ba 053f d110 133e
000003e0: dd9b 7abe e0f2 17bf a135 dabe daf6 3b3e
000003f0: 6e19 d3bd 8185 fd3e d67d 2c3f 568d 433f
0.2322654 -0.031801593 -0.08480727 0.15704846 0.28953537 -0.036124088 0.18697248 0.05952765
0.17726482 0.14474988 0.01883352 -0.5124142 -0.05306811 -0.22792211 0.2962579 -0.183512
0.1248025 0.025810061 -0.2923896 0.09674222 -0.07026286 0.41594532 -0.07827849 -0.106829055
-0.3856221 -0.1758059 0.7022278 -0.24500436 -0.26797977 -0.14919855 -0.1130672 -0.048740413
0.45234045 0.7236684 0.11743344 -0.027751636 -0.23146072 -0.07963774 0.028424473 -0.11704588
0.055742513 0.07493566 0.028799353 0.11208519 0.019474965 -0.11987442 -0.038488075 0.033706255
-0.06992503 -0.11462236 0.14471155 -0.12254112 -0.0636799 -0.09960704 -0.007127339 0.1836807
0.13138974 0.047796752 -0.10317631 -0.08903799 -0.04699288 -0.09842473 -0.00029761335 -0.00029161898
0.111244045 -0.15475848 -0.051527884 0.09901132 -0.10672311 0.5266882 1.437555 0.11023329
-0.447862 0.47010216 0.12473363 0.6526407 0.078881875 -0.38011554 -0.15446359 -0.12684646
-0.11944067 0.2779006 0.13670357 -0.73438203 0.28113294 -0.06258897 0.058137853 0.018536344
-0.28212774 -0.33005127 0.009648405 -0.46971262 -0.35803705 0.3260387 0.23044147 -0.13349724
-0.271912 0.014118166 0.13002525 -0.106315464 -0.12875804 0.35054561 0.11734998 0.12009093
-0.17608848 0.32196793 1.5579253 1.0757419 0.06882489 -0.32789934 0.25905097 -0.13517973
0.38756374 -0.23734194 -0.025165657 0.1481383 -0.33525246 -0.31625316 -0.14017184 0.24450876
-0.45352527 0.2919642 -0.60851187 0.3150067 -0.2218912 -0.12573452 0.0077440366 0.24295461
-0.14483951 0.33636758 0.74469054 0.19004123 -0.52317345 -0.16285434 0.09316047 -0.39649934
-0.1821249 0.21427366 0.046902303 -0.16669577 0.048234973 -0.05546867 0.1983128 -0.08036141
0.1431043 0.023740381 -0.10436666 0.09183859 0.20346807 -0.070928946 -0.16683972 0.28877777
0.4934204 0.081051596 -0.26183602 -0.08231969 -0.0845843 0.32121408 -0.03194571 0.074970804
0.071956374 -0.40188897 -0.19624454 -0.20587544 -0.022114024 0.20657185 -0.07041004 0.12205353
-0.13538916 0.31794623 -0.304862 0.09788192 0.11482726 -0.037659805 0.27714324 -0.12920761
0.032116745 -0.07951499 -0.0063833403 -0.1949747 0.29430917 0.216748 0.06259015 -0.1356848
0.3424344 -0.34551188 0.21465366 -0.20469444 -0.33580613 -0.409276 -0.23050378 -0.014094502
0.23331976 0.05946546 -0.10572987 0.5055298 -0.12984338 0.15090151 -0.3573528 -0.26005408
-0.3352407 0.1047906 0.051721506 -0.46184582 -0.19389625 0.5669743 0.0663733 -0.67563856
0.30043712 0.18355657 0.2890967 0.1551045 -0.042420283 0.49825445 0.30397162 -0.5589013
0.09518789 -0.2688705 1.3137223 -0.010944366 0.16379839 -0.19548489 0.00881599 -0.1107584
-0.20508797 0.15515809 0.32935223 -0.033392992 -0.05158476 0.032928843 -0.21311586 -0.2535734
-0.13243423 -0.20079678 -0.07458434 0.0071386946 -0.06544761 0.24789539 0.20198084 0.098765105
0.112177715 -0.67087436 -0.30248535 0.117056616 0.20847991 -0.18763155 0.5223799 0.14361884
-0.2447352 -0.5935497 -0.4261904 0.18355885 -0.10307585 0.49515918 0.6737951 0.76387537

rnn.weight_hh_l0_reverse f4 [256, 64]
00000000: 1028 62bd ccbc eabe a062 07be 518d 443e
00000010: da03 95be af8e 6b3d fea3 8c3e c98c aa3e
00000020: 8e1a 1dbf 34ac a5be 4f16 4ebe 337b 6ebe
00000030: 93f5 8fbd 70ec 6abd 9dfb 96be 15d1 76bd
00000040: 0f5c d8bd 8f55 d83e 6aea 63be 8727 f53d
00000050: 8f1a eebe e6e8 a23d 784e bbbe e3f0 033f
00000060: ea0b 33be c31c d2be 9a0f 6b3e aabb 673e
00000070: cf1b 563e a041 d1be 39e0 81bd 599b 843e
00000080: f898 b4be 26ca c5be 92a1 9abd 2c39 f53e
00000090: 0794 3c3f 74b8 febd 10fb 20be 7555 69be
000000a0: 7d19 4dbd e487 5d3e 9af2 11bf 0a3b 2c3e
000000b0: 0b19 bbbe c5b0 933e cf9d d43e 02ae 07bf
000000c0: 2ef1 d43e 4418 0c3d 60db dd3e acd3 92bd
000000d0: 2686 db3e 629a 843c 69a3 25be 8db9 e5bd
000000e0: 8baa ffbd 8f12 2d3f fe12 3fbe 108f 58bd
000000f0: 8291 1f3e 1669 b43e d761 733d 4230 b03e
00000100: 13ef 103d 51b5 53be 6c6c 513e 26f8 d53c
00000110: 171d c23d 4f77 463d 33ea 8b3e 9da8 b2bd
00000120: e8cc b8bd 7385 033f 641c efbd c690 263e
00000130: 1338 b7be 9980 e73c 1eb9 9bbe 83bc 6fbe
00000140: 25f6 7dbe 7a88 823b fac6 b93f 62bf 55be
00000150: 4968 87be c705 0fbc ec00 97be aaec 01bf
00000160: e91c 44bf 7db0 0dbf d0e0 06be c5e2 253e
00000170: 12f3 28be 97ea 0bbf d058 a6be 1541 5e3e
00000180: 2ac9 f9bd 192e 82be 3ba1 13be 5552 153e
00000190: 6d64 dbbe a467 5cbd e29f a1be 848f 05be
000001a0: bcf9 83bd 2692 eebc 3add c7be e3e2 013e
000001b0: a4ea 8a3e 1003 613e 3f43 a3bd 901d 133e
000001c0: b364 11bf 1950 53be 2793 d73d 3329 373e
000001d0: dc48 cfbe 4217 2a3e 5880 b63b ebbe 30bd
000001e0: 21b6 03be 7be9 0fbe 6db8 5d3e bbe9 973d
000001f0: 7171 debc d43f b7bd 6ff0 a23e c8a3 37bc
00000200: 4300 193e 76d9 193e ab86 5b3e a758 4f3c
00000210: 59f7 403e 1758 403e 38d8 d53e e7f9 8d3e
00000220: b897 b2bd 84fc 2abc e804 01be bbf5 2a3e
00000230: c0bc 5e3e 176b 873e 0c0a 4dbe 2692 29be
00000240: 7b9a 4dbe a2fb f5be 9672 03be 47f5 bf3d
00000250: bb45 0d3d 7781 ebbe 1d24 363e 40b4 81bd
00000260: 2416 0e3d 2f19 15bd 9a63 c4be 6407 09bf
00000270: 2f26 72be 30fd c03e b436 fe3d 74e1 b73d
00000280: b40e 7abd fc3e 16be 8ba7 aa3c 508c 713e
00000290: 8ed1 10be 9719 cabe 68f5 2e3e fef7 a03c
000002a0: a988 2fbe 3771 a5be 6015 32be cb2e 863e
000002b0: 0c5a 863d 9e64 98bc 70ad ee3e aa36 af3d
000002c0: 627a 233e 4aa8 42be 0ddb d7be 1701 e43d
000002d0: 9f9e e93e 1e39 233f 387e 57bd 6009 e53e
000002e0: 299d 393e 3c20 7ebe 7309 143f 6124 5b3e
000002f0: 5e07 9ebe 97e3 87be c813 dcbb 28b8 62be
00000300: e2c4 ee3e be29 9a3e 9c7b e0bb b237 11be
00000310: 49d8 7bbe c124 463f 1938 cf3e b2bb 423d
00000320: 170f f1be 6ea5 0fbf c0d7 0dbf f763 4ebe
00000330: 92ea 9c3e f1d7 873e bdbd f6be 0503 bb3c
00000340: 69b9 9a3e 06e6 0bbf 0b24 1abf 436f c4be
00000350: a8a2 1dbd 11d0 b1bd ca2b c3be 349e f3bd
00000360: 7388 83be 0499 08be 3b8d b9be 4027 5b3d
00000370: 226f 9fbd 1ea9 263f 4017 0bbe 61f7 853e
00000380: ef0e e53e e9ac 96be 096f ed3d d88c 9a3e
00000390: a411 b23e 52ea 873c 0c2f a4bd c743 803e
000003a0: a64f d13e 504c 183f 20bd f7be 9af6 ab3e
000003b0: 9c23 80be 243a c1bd 2fdb 8ebe abd1 b0bd
000003c0: 0b31 0e3e 14a8 a33e eb23 cabe 554b 61be
000003d0: b534 503e f632 073e 418b 54bd a4e4 103e
000003e0: bf31 24be ae78 7ebe 194a 763d 9385 ccbd
000003f0: 15e7 91bd 73be 07be d3b5 b4bd 5f2e b53e
-0.055213988 -0.45847166 -0.13221216 0.19194533 -0.291045 0.05750912 0.27468866 0.33310536
-0.61368644 -0.32357943 -0.20125698 -0.23289184 -0.070292614 -0.05735439 -0.2948884 -0.06025799
-0.10564434 0.42252776 -0.2225739 0.1197043 -0.46504638 0.07954578 -0.36583304 0.5153944
-0.17485014 -0.41037568 0.2295517 0.22630182 0.20909046 -0.4087038 -0.06341595 0.2589977
-0.35272956 -0.3863079 -0.07550348 0.4789518 0.7366337 -0.124375254 -0.15720773 -0.22786506
-0.050073136 0.2163387 -0.57010806 0.16819397 -0.36542544 0.28845802 0.41526648 -0.5299989
0.41590255 0.03420283 0.43331432 -0.071692795 0.42875785 0.016186897 -0.16175617 -0.11217032
-0.124837 0.67606443 -0.18659589 -0.05287081 0.1558285 0.35236424 0.05941948 0.34411818
0.03538425 -0.20674635 0.20451516 0.026119303 0.09478205 0.048453625 0.27327117 -0.08723567
-0.09023458 0.513755 -0.11675337 0.16266164 -0.3578497 0.028259562 -0.3041467 -0.23411755
-0.24800928 0.0039835544 1.4513848 -0.20873788 -0.2644675 -0.008729405 -0.2949289 -0.50751746
-0.76606613 -0.55347425 -0.13171697 0.16199787 -0.16498974 -0.5465483 -0.32489634 0.21704514
-0.12196572 -0.25425795 -0.14416973 0.14582188 -0.42850056 -0.053809777 -0.31567293 -0.13043028
-0.064441174 -0.029122423 -0.3903597 0.12684207 0.27132142 0.21973825 -0.079718105 0.14366746
-0.5679428 -0.20636024 0.10526114 0.1788681 -0.40485275 0.16610435 0.005569499 -0.043150824
-0.12862445 -0.1405391 0.21652384 0.074176274 -0.027153702 -0.08947721 0.3182406 -0.011208482
0.14941506 0.15024361 0.2143809 0.012655414 0.18844356 0.18783604 0.41766524 0.27729723
-0.08720344 -0.010436181 -0.12599528 0.16695301 0.2175169 0.2644889 -0.20023364 -0.16559657
-0.20078461 -0.48043543 -0.1283668 0.09372955 0.03449033 -0.4599721 0.17787214 -0.06333208
0.034689084 -0.03640097 -0.3835724 -0.535269 -0.23647378 0.37693167 0.124127775 0.08978549
-0.06104918 -0.14672464 0.020831844 0.23588681 -0.14142439 -0.39472649 0.17085803 0.019649502
-0.17141975 -0.3231294 -0.17390966 0.26207575 0.06560144 -0.018602666 0.46616697 0.08555348
0.15964654 -0.1900951 -0.4215931 0.1113302 0.4562883 0.6375903 -0.052610606 0.44733715
0.18126358 -0.24816984 0.5782692 0.21400596 -0.30864996 -0.26540825 -0.0067162253 -0.22140563
0.46634585 0.30109972 -0.006850673 -0.14181402 -0.24594225 0.7739983 0.40472487 0.04754228
-0.47081825 -0.561118 -0.55407333 -0.20155321 0.30647713 0.26531938 -0.48191634 0.022828588
0.30219582 -0.5464786 -0.6021125 -0.38366136 -0.0384852 -0.08682264 -0.38119346 -0.11895409
-0.2569004 -0.13339621 -0.36240563 0.05350423 -0.07784869 0.651018 -0.13583088 0.26165298
0.44737956 -0.29428795 0.11593444 0.3018558 0.34779084 0.016591225 -0.08016786 0.2505171
0.4088108 0.59491444 -0.48386478 0.3358658 -0.25027168 -0.094349176 -0.279016 -0.08633741
0.13885896 0.3196417 -0.39480528 -0.22001393 0.20332606 0.13203034 -0.051890615 0.1414972
-0.16034602 -0.24850723 0.06012926 -0.09986415 -0.071241535 -0.13256244 -0.08823743 0.3538694

rnn.bias_ih_l0_reverse f4 [256]
00000000: 52f2 ba3e 47b4 a9bd 1652 ac3e 37f6 023f
00000010: e2ac 423e 9869 853e 9012 913e 973c 2c3e
00000020: b526 553e 306b ba3e 36d7 87be e1bf 613e
00000030: fdeb 633b 2d41 1e3e d756 163e 0827 523e
00000040: 31cb 01be 64a6 47be 87c0 7f3e ad8c d2be
00000050: be94 f33d dcd7 3e3e 59d5 5ebd 2478 5abe
00000060: af86 3c3e c09d 5f3e f813 a73e 7f31 eb3d
00000070: e53c f33d f956 41be 415d 11bd 3635 553d
00000080: 4a30 783d 14b0 ae3e 124f 223e 0dec ae3e
00000090: c9a8 5a3e 1131 bfbd b5e7 0f3d 47fa b8bd
000000a0: ffd9 9f3c 2b69 0abc 42f4 503f 0b8e 053e
000000b0: b7b9 93bd b40f b5bc f4ba 1ebe bca1 c6bc
000000c0: bcb7 293e 12d1 933e e02b 6b3e 4b50 bf3e
000000d0: 9e8b b73d 5fc7 883e 01c3 7d3e 0fb9 8cbd
000000e0: 844e af3e d35c 983d 4aeb 963c 9829 883e
000000f0: c09d cdbb 70aa 9d3e 88e5 273e 66e9 8cbd
00000100: 7929 4a3e 9963 45be a32d 97be bf3a 353e
00000110: af26 6fbe d8d9 ddbd 4c7a d33e 316a 2dbe
00000120: cc2a 31bd 09db 9cbd 5462 d3bd ebfd debc
00000130: 0d6c 0fbd 9672 69be fada b5be eb54 0bbe
00000140: 2038 1ebd af34 cd3d f026 e0bd 87e4 bfbd
00000150: a95d 85be c1de 7b3c a90f 9d3e 75f4 d3bd
00000160: 950d 713c 74bc 24bd 8ac6 b73d 0361 9dbe
00000170: 4e07 c83d 9fad a0be 67d3 003d 7257 94be
00000180: d726 a0be c1ef cf3d fd67 013c 8e80 e5bd
00000190: e3bf ff3c c819 25bd 646d 1bbe d376 98be
000001a0: 71e3 813d a621 e1be 2fc5 053e 1203 3cbd
000001b0: cae1 6e3d c15d ba3d 5ec2 3abd f712 fdbd
000001c0: 23d1 69be 0696 233e 1aba febc 4087 b0bd
000001d0: d258 2bbe 75d1 483d 8328 96be 9160 273e
000001e0: b19c cebe 4aa9 debd da23 a2be 19f6 96be
000001f0: 7628 c6bd 18c6 8c3e 7650 abbe 43af 003e
00000200: 347d 093f 910b cabc 0dfc 0abe 84d1 513e
00000210: 6660 8f3c 5bf6 153d 01e2 373e 3d1a d7bd
00000220: 9d28 b13d 9e44 47be 0f03 d5bd a44c 9f3e
00000230: 8e6e 793f 5b7c 4a3c 1504 9cbd b9cc a0bd
00000240: 8b1a 963e ec42 03bf 8219 36be 0ae6 81be
00000250: 3490 06bd 47f3 58bd 5cc6 03bf bbeb 83bc
00000260: b31c 163e e3f4 233d 5d40 3a3e dc79 28bd
00000270: a769 3c3d c560 053f acfb 69be 7534 243e
00000280: 5d0e de3d ea8d 92bc 2f70 753e c714 52bb
00000290: f119 3e3e 44f9 d03e 3b60 3cbe 649f dbbc
000002a0: 31a3 063e eb8e 38bd 8f15 6cbe 71dc 353e
000002b0: 185c 3f3d a9f7 04bc 7e16 e0bc 3704 c83d
000002c0: 6b70 423e 4b16 843e a485 73bd db4b 9b3d
000002d0: 0c97 8dbd cf82 aabc 9390 e4bd c941 eabd
000002e0: fd6e 543c 9d8c 7bbd 0006 a3bd 6f01 32be
000002f0: 824d 13bd ecc2 963e c40e f9bd bec3 dc3d
00000300: 00ab 08be c9a9 c9bc 74c1 003e b2e1 ff3d
00000310: e733 463e bd03 c63d 4f2c 74bc 16f2 013e
00000320: 2653 ac3e 3e85 a93e bfa8 8bbe 179d 11bd
00000330: 8bb0 79bd 6de2 ac3e f5d5 253e 8c02 1a3e
00000340: cc95 62bd d301 1c3e b38f 1c3e b3e5 4d3d
00000350: 53e4 873e 8eb2 743e e2dd 6ebe 87fe 3bbe
00000360: 4a6a 7c3d fdb9 c53e 1ec5 64be ceb5 9e3e
00000370: 5d6e 8b3d a29c 05be 5cca 82bd 70f2 babd
00000380: fff2 403e f9b7 663e 2b3f 86bd f32e 453e
00000390: ee8d 163e e89f 47be 7bb9 a73d 4826 f53d
000003a0: 2106 d53c 5813 a4bd c87a 4dbe 950b a8bd
000003b0: 5cbc 173e fce8 4e3e d734 a2bd be1f bc3d
000003c0: ae7f 383e 0cdd e03d a42c f13d c34b 973e
000003d0: 42ba 573e f90e 4e3e 5b52 943e a791 a83c
000003e0: 6aff 613e 32ab 563d 94b1 fabc a66a 0b3d
000003f0: e40a 193e d7a2 c6bc 8635 ea3d ecc3 9b3d
0.36513 -0.08286338 0.33656377 0.51156944 0.19011262 0.26057124 0.28334475 0.16819988
0.20815547 0.36409903 -0.2653138 0.22045852 0.003477811 0.1545455 0.14681564 0.20522702
-0.12675168 -0.19497067 0.24975787 -0.41122952 0.11893605 0.18637031 -0.054402683 -0.21334893
0.18410753 0.2183752 0.32632422 0.1148405 0.11876849 -0.18880834 -0.035489324 0.0520527
0.060592927 0.34118712 0.15850475 0.34164467 0.21353449 -0.093355305 0.035133082 -0.090321116
0.019513128 -0.008447926 0.8162271 0.13042466 -0.07213157 -0.022102214 -0.15501004 -0.024247043
0.16573995 0.28870445 0.22965956 0.37365946 0.08962177 0.26714608 0.2478142 -0.068712346
0.3423959 0.0743958 0.018422741 0.26594234 -0.006274909 0.30794096 0.16396153 -0.06880455
0.19742383 -0.19276275 -0.29527006 0.17698191 -0.233546 -0.10832566 0.41304243 -0.1693504
-0.043253705 -0.07658965 -0.10321489 -0.027220687 -0.035015155 -0.22797617 -0.35518628 -0.13606612
-0.038627744 0.10019814 -0.10944927 -0.0936976 -0.2604802 0.015372933 0.3067601 -0.10349361
0.014712711 -0.040218785 0.08973415 -0.30738077 0.09767018 -0.31382462 0.03145161 -0.28972965
-0.31279632 0.10153151 0.007898328 -0.112061605 0.031219428 -0.04030779 -0.15178448 -0.29778156
0.06342209 -0.43970984 0.13063501 -0.045901366 0.058320798 0.090999134 -0.04559552 -0.12357133
-0.22833686 0.15975198 -0.0310946 -0.08619547 -0.16733101 0.04902788 -0.29327783 0.16345431
-0.4035392 -0.10872133 -0.31667978 -0.29484633 -0.09675686 0.27494884 -0.33459824 0.12566857
0.5370667 -0.024663718 -0.13572712 0.2049008 0.017502021 0.036611896 0.17957307 -0.105030514
0.086503245 -0.19459769 -0.10400974 0.3111316 0.9743432 0.01235875 -0.07617966 -0.07851548
0.29317126 -0.5127399 -0.17783168 -0.25370818 -0.032852367 -0.052966382 -0.5147455 -0.016103616
0.14659385 0.040028464 0.18188615 -0.04113184 0.045999195 0.52100784 -0.22849911 0.16035636
0.10842583 -0.017889936 0.23968576 -0.0032055841 0.18564583 0.40815175 -0.18396084 -0.026809402
0.1314819 -0.045058172 -0.23055099 0.17759873 0.046718687 -0.008115687 -0.027354475 0.09766429
0.18988197 0.25798258 -0.05945362 0.07582828 -0.069135755 -0.020814328 -0.11160388 -0.11438329
0.012965915 -0.061413396 -0.07960129 -0.1738336 -0.03596259 0.2944559 -0.121610194 0.10779522
-0.13346481 -0.024617093 0.12573797 0.1249422 0.19355737 0.09668682 -0.014903142 0.12690005
0.33657187 0.33109468 -0.2727718 -0.035550203 -0.06095938 0.337665 0.161949 0.15040034
-0.05531864 0.15235071 0.15289192 0.050267886 0.26541385 0.23896238 -0.23326829 -0.18358813
0.061624803 0.3861846 -0.22340819 0.3099808 0.068081595 -0.13048032 -0.06386253 -0.091282725
0.18842696 0.22531117 -0.06555017 0.19256191 0.1470258 -0.19494593 0.081896745 0.11970192
0.026003899 -0.08011502 -0.20066369 -0.08205334 0.14817947 0.20206064 -0.07920235 0.09185742
0.18017456 0.10979661 0.11776093 0.2954999 0.21067145 0.20122899 0.28969082 0.020577265
0.22070089 0.05240936 -0.030602254 0.034037255 0.1494556 -0.02424757 0.1143599 0.076057285
